…
ayer to prevent overfitting\n\n# Output layer with binary classification (sigmoid activation for binary classification)\nmodel.add(layers.Dense(2))\n\n# Compile the model\nmodel.compile(optimizer='adam', loss=keras.losses.SparseCategoricalCrossentropy(from_logits=True), metrics=['accuracy'])\n\n# Print the model summary\nmodel.summary()\n\n\nModel: \"sequential_42\"\n_________________________________________________________________\n Layer (type)                Output Shape              Param #   \n=================================================================\n conv2d_10 (Conv2D)          (None, 148, 148, 32)      896       \n                                                                 \n max_pooling2d_8 (MaxPoolin  (None, 74, 74, 32)        0         \n g2D)                                                            \n                                                                 \n conv2d_11 (Conv2D)          (None, 72, 72, 64)        18496     \n                                                                 \n max_pooling2d_9 (MaxPoolin  (None, 36, 36, 64)        0         \n g2D)                                                            \n                                                                 \n flatten_8 (Flatten)         (None, 82944)             0         \n                                                                 \n dense_11 (Dense)            (None, 128)               10616960  \n                                                                 \n dropout_4 (Dropout)         (None, 128)               0         \n                                                                 \n dense_12 (Dense)            (None, 2)                 258       \n                                                                 \n=================================================================\nTotal params: 10636610 (40.58 MB)\nTrainable params: 10636610 (40.58 MB)\nNon-trainable params: 0 (0.00 Byte)\n_________________________________________________________________\n\n\nWe will now create our first keras sequential model. We start by initializi
…
))\n\n# Fully connected layers\nmodel2.add(layers.Dense(64, activation='relu'))\n\n# Output layer\nmodel2.add(layers.Dense(2))\n\n# Compile the model\nmodel2.compile(optimizer=Adam(learning_rate=0.0001), loss=keras.losses.SparseCategoricalCrossentropy(from_logits=True), metrics=['accuracy'])\n\n# Print the model summary\nmodel2.summary()\n\n\nModel: \"sequential_2\"\n_________________________________________________________________\n Layer (type)                Output Shape              Param #   \n=================================================================\n random_flip_1 (RandomFlip)  (None, 150, 150, 3)       0         \n                                                                 \n random_rotation_1 (RandomR  (None, 150, 150, 3)       0         \n otation)                                                        \n                                                                 \n conv2d_6 (Conv2D)           (None, 148, 148, 32)      896       \n                                                                 \n max_pooling2d_5 (MaxPoolin  (None, 49, 49, 32)        0         \n g2D)                                                            \n                                                                 \n conv2d_7 (Conv2D)           (None, 47, 47, 32)        9248      \n                                                                 \n max_pooling2d_6 (MaxPoolin  (None, 15, 15, 32)        0         \n g2D)                                                            \n                                                                 \n conv2d_8 (Conv2D)           (None, 13, 13, 32)        9248      \n                                                                 \n max_pooling2d_7 (MaxPoolin  (None, 4, 4, 32)          0         \n g2D)                                                            \n                                                                 \n conv2d_9 (Conv2D)           (None, 2, 2, 32)          9248      \n                                                                 \n dropout_2 (Dropout)         (None, 2, 2, 32)          0         \n                                                                 \n flatten_2 (Flatten)         (None, 128)               0         \n                                                                 \n dense_4 (Dense)             (None, 64)                8256      \n                                                                 \n dense_5 (Dense)             (None, 2)                 130       \n                                                                 \n=================================================================\nTotal params: 37026 (144.63 KB)\nTrainable params: 37026 (144.63 KB)\nNon-trainable params: 0 (0.00 Byte)\n_________________________________________________________________\n\n\nThe main difference in between this model and the first one we created is in th
…
64, activation='relu'))\n\n\n# Output layer with binary classification (sigmoid activation for binary classification)\nmodel3.add(layers.Dense(2))\n\n# Compile the model\nmodel3.compile(optimizer='adam', loss=keras.losses.SparseCategoricalCrossentropy(from_logits=True), metrics=['accuracy'])\n\n# Print the model summary\nmodel3.summary()\n\n\nModel: \"sequential_5\"\n_________________________________________________________________\n Layer (type)                Output Shape              Param #   \n=================================================================\n random_flip_4 (RandomFlip)  (None, 150, 150, 3)       0         \n                                                                 \n random_rotation_4 (RandomR  (None, 150, 150, 3)       0         \n otation)                                                        \n                                                                 \n model (Functional)          (None, 150, 150, 3)       0         \n                                                                 \n conv2d_14 (Conv2D)          (None, 148, 148, 32)      896       \n                                                                 \n max_pooling2d_11 (MaxPooli  (None, 49, 49, 32)        0         \n ng2D)                                                           \n                                                                 \n conv2d_15 (Conv2D)          (None, 47, 47, 32)        9248      \n                                                                 \n max_pooling2d_12 (MaxPooli  (None, 15, 15, 32)        0         \n ng2D)                                                           \n                                                                 \n conv2d_16 (Conv2D)          (None, 13, 13, 32)        9248      \n                                                                 \n max_pooling2d_13 (MaxPooli  (None, 4, 4, 32)          0         \n ng2D)                                                           \n                                                                 \n conv2d_17 (Conv2D)          (None, 2, 2, 32)          9248      \n                                                                 \n dropout_4 (Dropout)         (None, 2, 2, 32)          0         \n                                                                 \n flatten_5 (Flatten)         (None, 128)               0         \n                                                                 \n dense_9 (Dense)             (None, 64)                8256      \n                                                                 \n dense_10 (Dense)            (None, 2)                 130       \n                                                                 \n=================================================================\nTotal params: 37026 (144.63 KB)\nTrainable params: 37026 (144.63 KB)\nNon-trainable params: 0 (0.00 Byte)\n_________________________________________________________________\n\n\nThe main difference between this model and model2 is that we are including the 
…
en())\n\n# Output layer with binary classification (sigmoid activation for binary classification)\nmodel4.add(layers.Dense(2))\n\n# Compile the model\nmodel4.compile(optimizer=Adam(learning_rate=0.0001), loss=keras.losses.SparseCategoricalCrossentropy(from_logits=True), metrics=['accuracy'])\n\n# Print the model summary\nmodel4.summary()\n\n\nModel: \"sequential_3\"\n_________________________________________________________________\n Layer (type)                Output Shape              Param #   \n=================================================================\n random_flip_2 (RandomFlip)  (None, 150, 150, 3)       0         \n                                                                 \n random_rotation_2 (RandomR  (None, 150, 150, 3)       0         \n otation)                                                        \n                                                                 \n model_1 (Functional)        (None, 5, 5, 960)         2996352   \n                                                                 \n flatten_3 (Flatten)         (None, 24000)             0         \n                                                                 \n dense_6 (Dense)             (None, 2)                 48002     \n                                                                 \n=================================================================\nTotal params: 3044354 (11.61 MB)\nTrainable params: 48002 (187.51 KB)\nNon-trainable params: 2996352 (11.43 MB)\n_________________________________________________________________\n\n\nAs we can observem, this model appears to be much simpler than the previous
…
Output layer with binary classification (sigmoid activation for binary classification)\nfinalModel.add(layers.Dense(2))\n\n# Compile the model\nfinalModel.compile(optimizer=Adam(learning_rate=0.0001), loss=keras.losses.SparseCategoricalCrossentropy(from_logits=True), metrics=['accuracy'])\n\n# Print the model summary\nfinalModel.summary()\n\nModel: \"sequential_41\"\n_________________________________________________________________\n Layer (type)                Output Shape              Param #   \n=================================================================\n random_flip_23 (RandomFlip  (None, 150, 150, 3)       0         \n )                                                               \n                                                                 \n random_rotation_25 (Random  (None, 150, 150, 3)       0         \n Rotation)                                                       \n                                                                 \n model_1 (Functional)        (None, 5, 5, 960)         2996352   \n                                                                 \n global_max_pooling2d_2 (Gl  (None, 960)               0         \n obalMaxPooling2D)                                               \n                                                                 \n flatten_7 (Flatten)         (None, 960)               0         \n                                                                 \n dense_10 (Dense)            (None, 2)                 1922      \n                                                                 \n=================================================================\nTotal params: 2998274 (11.44 MB)\nTrainable params: 1922 (7.51 KB)\nNon-trainable params: 2996352 (11.43 MB)\n_________________________________________________________________\n\n\nFor our final model we are trying to get as accurate as possible. Seeing as o
…
